…
?[0mlr0=0.001, lrf=0.2, momentum=0.937, weight_decay=0.0005, warmup_epochs=3.0, warmup_momentum=0.8, warmup_bias_lr=0.1, box=0.05, cls=0.5, cls_pw=1.0, obj=1.0, obj_pw=1.0, iou_t=0.2, anchor_t=4.0, fl_gamma=0.\r\n0, hsv_h=0.015, hsv_s=0.7, hsv_v=0.4, degrees=25, translate=0.3, scale=0.5, shear=25, perspective=0.0, flipud=0.0, fliplr=1.0, mosaic=1.0, mixup=1.0\r\n?[34m?[1mwandb: ?[0mInstall Weights & Biases for YOLOv5 logging with 'pip install wandb' (recommended)\r\n\r\n                 from  n    params  module                                  arguments\r\n  0                -1  1       928  models.common.Conv                      [3, 32, 3, 1]\r\n  1                -1  1     18560  models.common.Conv                      [32, 64, 3, 2]\r\n  2                -1  1     19904  models.common.BottleneckCSP             [64, 64, 1]\r\n  3                -1  1     73984  models.common.Conv                      [64, 128, 3, 2]\r\n  4                -1  1    119936  models.common.BottleneckCSP             [128, 128, 2]\r\n  5                -1  1    295424  models.common.Conv                      [128, 256, 3, 2]\r\n  6                -1  1   1463552  models.common.BottleneckCSP             [256, 256, 8]\r\n  7                -1  1   1180672  models.common.Conv                      [256, 512, 3, 2]\r\n  8                -1  1   5843456  models.common.BottleneckCSP             [512, 512, 8]\r\n  9                -1  1   4720640  models.common.Conv                      [512, 1024, 3, 2]\r\n 10                -1  1  12858368  models.common.BottleneckCSP             [1024, 1024, 4]\r\n 11                -1  1   5245952  models.common.Bottleneck                [1024, 1024, False]\r\n 12                -1  1    525312  models.common.Conv                      [1024, 512, 1, 1]\r\n 13                -1  1    656896  models.common.SPP                       [512, 512, [5, 9, 13]]\r\n 14                -1  1   4983808  models.common.Bottleneck                [512, 1024, False]\r\n 15                -1  1   5245952  models.common.Bottleneck                [1024, 1024, False]\r\n 16                -1  1        31  torch.nn.modules.conv.Conv2d            [30, 1, 1]\r\n 17                -3  1    262656  models.common.Conv                      [1024, 256, 1, 1]\r\n 18                -1  1         0  torch.nn.modules.upsampling.Upsample    [None, 2, 'nearest']\r\n 19           [-1, 8]  1         0  models.common.Concat                    [1]\r\n 20                -1  1   1377792  models.common.Bottleneck                [768, 512, False]\r\n 21                -1  2   2624512  models.common.Bottleneck                [512, 512, False]\r\n 22                -1  1        31  torch.nn.modules.conv.Conv2d            [30, 1, 1]\r\n 23                -3  1     65792  models.common.Conv                      [512, 128, 1, 1]\r\n 24                -1  1         0  torch.nn.modules.upsampling.Upsample    [None, 2, 'nearest']\r\n 25           [-1, 6]  1         0  models.common.Concat                    [1]\r\n 26                -1  1    344832  models.common.Bottleneck                [384, 256, False]\r\n 27                -1  2    656896  models.common.Bottleneck                [256, 256, False]\r\n 28                -1  1        31  torch.nn.modules.conv.Conv2d            [30, 1, 1]\r\n 29                []  1         0  models.yolo.Detect                      [5, [[10, 13, 16, 30, 33, 23], [30, 61, 62, 45, 59, 119], [116, 90, 156, 198, 373, 326]], []]\r\nTraceback (most recent call last):\r\n  File \"train.py\", line 544, in <module>\r\n    train(hyp, opt, device, tb_writer)\r\n  File \"train.py\", line 95, in train\r\n    model = Model(opt.cfg, ch=3, nc=nc, anchor
…
[512, False]],\r\n   [-1, 1, Conv, [256, 1, 1]],  # 31\r\n   [-1, 1, Conv, [512, 3, 1]],  # 32 (P4/16-medium)\r\n\r\n   [31, 1, Conv, [512, 3, 2]], # down sample\r\n   [[-1, 14], 1, Concat, [1]],  # concat 14\r\n   [-1, 2, Bottleneck, [1024, False]],\r\n   [-1, 1, Conv, [512, 1, 1]],\r\n   [-1, 1, Conv, [1024, 3, 1]],  # 37 (P5/32-large)\r\n\r\n   [[27, 32, 37], 1, Detect, [nc, anchors]],   # Detect(P3, P4, P5)\r\n  ]\r\n```\r\n\r\noutput:\r\n```\r\n                 from  n    params  module                                  arguments                     \r\n  0                -1  1       928  models.common.Conv                      [3, 32, 3, 1]                 \r\n  1                -1  1     18560  models.common.Conv                      [32, 64, 3, 2]                \r\n  2                -1  1     19904  models.common.BottleneckCSP             [64, 64, 1]                   \r\n  3                -1  1     73984  models.common.Conv                      [64, 128, 3, 2]               \r\n  4                -1  1    119936  models.common.BottleneckCSP             [128, 128, 2]                 \r\n  5                -1  1    295424  models.common.Conv                      [128, 256, 3, 2]              \r\n  6                -1  1   1463552  models.common.BottleneckCSP             [256, 256, 8]                 \r\n  7                -1  1   1180672  models.common.Conv                      [256, 512, 3, 2]              \r\n  8                -1  1   5843456  models.common.BottleneckCSP             [512, 512, 8]                 \r\n  9                -1  1   4720640  models.common.Conv                      [512, 1024, 3, 2]             \r\n 10                -1  1  12858368  models.common.BottleneckCSP             [1024, 1024, 4]               \r\n 11                -1  1   5245952  models.common.Bottleneck                [1024, 1024, False]           \r\n 12                -1  1   1574912  models.common.SPP                       [1024, 512, [5, 9, 13]]       \r\n 13                -1  1   4720640  models.common.Conv                      [512, 1024, 3, 1]             \r\n 14                -1  1    525312  models.common.Conv                      [1024, 512, 1, 1]             \r\n 15                -1  1    131584  models.common.Conv                      [512, 256, 1, 1]              \r\n 16                -1  1         0  torch.nn.modules.upsampling.Upsample    [None, 2, 'nearest']          \r\n 17                 8  1    131584  models.common.Conv                      [512, 256, 1, 1]              \r\n 18          [-2, -1]  1         0  models.common.Concat                    [1]                           \r\n 19                -1  2   2624512  models.common.Bottleneck                [512, 512, False]             \r\n 20                -1  1    131584  models.common.Conv                      [512, 256, 1, 1]              \r\n 21                -1  1     33024  models.common.Conv                      [256, 128, 1, 1]              \r\n 22                -1  1         0  torch.nn.modules.upsampling.Upsample    [None, 2, 'nearest']          \r\n 23                 6  1     33024  models.common.Conv                      [256, 128, 1, 1]              \r\n 24          [-2, -1]  1         0  models.common.Concat                    [1]                           \r\n 25                -1  2    656896  models.common.Bottleneck                [256, 256, False]             \r\n 26                -1  1     33024  models.common.Conv                      [256, 128, 1, 1]              \r\n 27                -1  1    295424  models.common.Conv                      [128, 256, 3, 1]              \r\n 28                26  1    295424  models.common.Conv                      [128, 256, 3, 2]              \r\n 29          [-1, 20]  1         0  models.common.Concat                    [1]                           \r\n 30                -1  2   2624512  models.common.Bottleneck                [512, 512, False]             \r\n 31                -1  1    131584  models.common.Conv                      [512, 256, 1, 1]              \r\n 32                -1  1   1180672  models.common.Conv                      [256, 512, 3, 1]              \r\n 33                31  1   1180672  models.common.Conv                      [256, 512, 3, 2]              \r\n 34          [-1, 14]  1         0  models.common.Concat                    [1]                           \r\n 35                -1  2  10491904  models.common.Bottleneck                [1024, 1024, False]           \r\n 36                -1  1    525312  models.common.Conv                      [1024, 512, 1, 1]             \r\n 37                -1  1   4720640  models.common.Conv                      [512, 1024, 3, 1]             \r\n 38      [27, 32, 37]  1    457725  Detect                                  [80, [[10, 13, 16, 30, 33, 23], [30, 61, 62, 45, 59, 119], [116, 90, 156, 198, 373, 326]], [256, 512, 1024]]\r\nModel Summary: 472 layers, 64341341 parameters, 64341341 gradients, 138.3 GFLOPS\r\n```\r\n\n@snow-tyan Hi, I tried to run YOLOv4 with your modified yaml file, and overall, the re
…
